…
d":true,"execution":{"iopub.status.busy":"2025-03-25T13:31:58.697372Z","iopub.execute_input":"2025-03-25T13:31:58.697674Z","iopub.status.idle":"2025-03-25T13:31:59.167636Z","shell.execute_reply.started":"2025-03-25T13:31:58.697651Z","shell.execute_reply":"2025-03-25T13:31:59.166755Z"},"collapsed":true,"jupyter":{"outputs_hidden":true}},"outputs":[{"name":"stdout","text":"----------------------------------------------------------------\n        Layer (type)               Output Shape         Param #\n================================================================\n            Conv2d-1         [-1, 32, 149, 149]             864\n            Conv2d-2         [-1, 32, 149, 149]             864\n            Conv2d-3         [-1, 32, 149, 149]             864\n            Conv2d-4         [-1, 32, 149, 149]             864\n       BatchNorm2d-5         [-1, 32, 149, 149]              64\n       BatchNorm2d-6         [-1, 32, 149, 149]              64\n       BatchNorm2d-7         [-1, 32, 149, 149]              64\n       BatchNorm2d-8         [-1, 32, 149, 149]              64\n       BasicConv2d-9         [-1, 32, 149, 149]               0\n      BasicConv2d-10         [-1, 32, 149, 149]               0\n      BasicConv2d-11         [-1, 32, 149, 149]               0\n      BasicConv2d-12         [-1, 32, 149, 149]               0\n           Conv2d-13         [-1, 32, 147, 147]           9,216\n           Conv2d-14         [-1, 32, 147, 147]           9,216\n           Conv2d-15         [-1, 32, 147, 147]           9,216\n           Conv2d-16         [-1, 32, 147, 147]           9,216\n      BatchNorm2d-17         [-1, 32, 147, 147]              64\n      BatchNorm2d-18         [-1, 32, 147, 147]              64\n      BatchNorm2d-19         [-1, 32, 147, 147]              64\n      BatchNorm2d-20         [-1, 32, 147, 147]              64\n      BasicConv2d-21         [-1, 32, 147, 147]               0\n      BasicConv2d-22         [-1, 32, 147, 147]               0\n      BasicConv2d-23         [-1, 32, 147, 147]               0\n      BasicConv2d-24         [-1, 32, 147, 147]               0\n           Conv2d-25         [-1, 64, 147, 147]          18,432\n           Conv2d-26         [-1, 64, 147, 147]          18,432\n           Conv2d-27         [-1, 64, 147, 147]          18,432\n      BatchNorm2d-28         [-1, 64, 147, 147]             128\n           Conv2d-29         [-1, 64, 147, 147]          18,432\n      BatchNorm2d-30         [-1, 64, 147, 147]             128\n      BatchNorm2d-31         [-1, 64, 147, 147]             128\n      BasicConv2d-32         [-1, 64, 147, 147]               0\n      BasicConv2d-33         [-1, 64, 147, 147]               0\n      BatchNorm2d-34         [-1, 64, 147, 147]             128\n        MaxPool2d-35           [-1, 64, 73, 73]               0\n        MaxPool2d-36           [-1, 64, 73, 73]               0\n      BasicConv2d-37         [-1, 64, 147, 147]               0\n      BasicConv2d-38         [-1, 64, 147, 147]               0\n        MaxPool2d-39           [-1, 64, 73, 73]               0\n        MaxPool2d-40           [-1, 64, 73, 73]               0\n           Conv2d-41           [-1, 80, 73, 73]           5,120\n           Conv2d-42           [-1, 80, 73, 73]           5,120\n           Conv2d-43           [-1, 80, 73, 73]           5,120\n           Conv2d-44           [-1, 80, 73, 73]           5,120\n      BatchNorm2d-45           [-1, 80, 73, 73]             160\n      BatchNorm2d-46           [-1, 80, 73, 73]             160\n      BatchNorm2d-47           [-1, 80, 73, 73]             160\n      BatchNorm2d-48           [-1, 80, 73, 73]             160\n      BasicConv2d-49           [-1, 80, 73, 73]               0\n      BasicConv2d-50           [-1, 80, 73, 73]               0\n      BasicConv2d-51           [-1, 80, 73, 73]               0\n      BasicConv2d-52           [-1, 80, 73, 73]               0\n           Conv2d-53          [-1, 192, 71, 71]         138,240\n           Conv2d-54          [-1, 192, 71, 71]         138,240\n           Conv2d-55          [-1, 192, 71, 71]         138,240\n           Conv2d-56          [-1, 192, 71, 71]         138,240\n      BatchNorm2d-57          [-1, 192, 71, 71]             384\n      BatchNorm2d-58          [-1, 192, 71, 71]             384\n      BatchNorm2d-59          [-1, 192, 71, 71]             384\n      BatchNorm2d-60          [-1, 192, 71, 71]             384\n      BasicConv2d-61          [-1, 192, 71, 71]               0\n      BasicConv2d-62          [-1, 192, 71, 71]               0\n      BasicConv2d-63          [-1, 192, 71, 71]               0\n      BasicConv2d-64          [-1, 192, 71, 71]               0\n        MaxPool2d-65          [-1, 192, 35, 35]               0\n        MaxPool2d-66          [-1, 192, 35, 35]               0\n        MaxPool2d-67          [-1, 192, 35, 35]               0\n        MaxPool2d-68          [-1, 192, 35, 35]               0\n           Conv2d-69           [-1, 64, 35, 35]          12,288\n           Conv2d-70           [-1, 64, 35, 35]          12,288\n           Conv2d-71           [-1, 64, 35, 35]          12,288\n           Conv2d-72           [-1, 64, 35, 35]          12,288\n      BatchNorm2d-73           [-1, 64, 35, 35]             128\n      BatchNorm2d-74           [-1, 64, 35, 35]             128\n      BatchNorm2d-75           [-1, 64, 35, 35]             128\n      BatchNorm2d-76           [-1, 64, 35, 35]             128\n      BasicConv2d-77           [-1, 64, 35, 35]               0\n      BasicConv2d-78           [-1, 64, 35, 35]               0\n      BasicConv2d-79           [-1, 64, 35, 35]               0\n      BasicConv2d-80           [-1, 64, 35, 35]               0\n           Conv2d-81           [-1, 48, 35, 35]           9,216\n           Conv2d-82           [-1, 48, 35, 35]           9,216\n           Conv2d-83           [-1, 48, 35, 35]           9,216\n           Conv2d-84           [-1, 48, 35, 35]           9,216\n      BatchNorm2d-85           [-1, 48, 35, 35]              96\n      BatchNorm2d-86           [-1, 48, 35, 35]              96\n      BatchNorm2d-87           [-1, 48, 35, 35]              96\n      BatchNorm2d-88           [-1, 48, 35, 35]              96\n      BasicConv2d-89           [-1, 48, 35, 35]               0\n      BasicConv2d-90           [-1, 48, 35, 35]               0\n      BasicConv2d-91           [-1, 48, 35, 35]               0\n      BasicConv2d-92           [-1, 48, 35, 35]               0\n           Conv2d-93           [-1, 64, 35, 35]          76,800\n           Conv2d-94           [-1, 64, 35, 35]          76,800\n           Conv2d-95           [-1, 64, 35, 35]          76,800\n           Conv2d-96           [-1, 64, 35, 35]          76,800\n      BatchNorm2d-97           [-1, 64, 35, 35]             128\n      BatchNorm2d-98           [-1, 64, 35, 35]             128\n      BatchNorm2d-99           [-1, 64, 35, 35]             128\n     BatchNorm2d-100           [-1, 64, 35, 35]             128\n     BasicConv2d-101           [-1, 64, 35, 35]               0\n     BasicConv2d-102           [-1, 64, 35, 35]               0\n     BasicConv2d-103           [-1, 64, 35, 35]               0\n     BasicConv2d-104           [-1, 64, 35, 35]               0\n          Conv2d-105           [-1, 64, 35, 35]          12,288\n          Conv2d-106           [-1, 64, 35, 35]          12,288\n          Conv2d-107           [-1, 64, 35, 35]          12,288\n          Conv2d-108           [-1, 64, 35, 35]          12,288\n     BatchNorm2d-109           [-1, 64, 35, 35]             128\n     BatchNorm2d-110           [-1, 64, 35, 35]             128\n     BatchNorm2d-111           [-1, 64, 35, 35]             128\n     BatchNorm2d-112           [-1, 64, 35, 35]             128\n     BasicConv2d-113           [-1, 64, 35, 35]               0\n     BasicConv2d-114           [-1, 64, 35, 35]               0\n     BasicConv2d-115           [-1, 64, 35, 35]               0\n     BasicConv2d-116           [-1, 64, 35, 35]               0\n          Conv2d-117           [-1, 96, 35, 35]          55,296\n          Conv2d-118           [-1, 96, 35, 35]          55,296\n          Conv2d-119           [-1, 96, 35, 35]          55,296\n          Conv2d-120           [-1, 96, 35, 35]          55,296\n     BatchNorm2d-121           [-1, 96, 35, 35]             192\n     BatchNorm2d-122           [-1, 96, 35, 35]             192\n     BatchNorm2d-123           [-1, 96, 35, 35]             192\n     BatchNorm2d-124           [-1, 96, 35, 35]             192\n     BasicConv2d-125           [-1, 96, 35, 35]               0\n     BasicConv2d-126           [-1, 96, 35, 35]               0\n     BasicConv2d-127           [-1, 96, 35, 35]               0\n     BasicConv2d-128           [-1, 96, 35, 35]               0\n          Conv2d-129           [-1, 96, 35, 35]          82,944\n          Conv2d-130           [-1, 96, 35, 35]          82,944\n          Conv2d-131           [-1, 96, 35, 35]          82,944\n     BatchNorm2d-132           [-1, 96, 35, 35]             192\n          Conv2d-133           [-1, 96, 35, 35]          82,944\n     BatchNorm2d-134           [-1, 96, 35, 35]             192\n     BatchNorm2d-135           [-1, 96, 35, 35]             192\n     BasicConv2d-136           [-1, 96, 35, 35]               0\n     BasicConv2d-137           [-1, 96, 35, 35]               0\n     BatchNorm2d-138           [-1, 96, 35, 35]             192\n     BasicConv2d-139           [-1, 96, 35, 35]               0\n     BasicConv2d-140           [-1, 96, 35, 35]               0\n          Conv2d-141           [-1, 32, 35, 35]           6,144\n          Conv2d-142           [-1, 32, 35, 35]           6,144\n          Conv2d-143           [-1, 32, 35, 35]           6,144\n          Conv2d-144           [-1, 32, 35, 35]           6,144\n     BatchNorm2d-145           [-1, 32, 35, 35]              64\n     BatchNorm2d-146           [-1, 32, 35, 35]              64\n     BatchNorm2d-147           [-1, 32, 35, 35]              64\n     BasicConv2d-148           [-1, 32, 35, 35]               0\n     BasicConv2d-149           [-1, 32, 35, 35]               0\n     BatchNorm2d-150           [-1, 32, 35, 35]              64\n      InceptionA-151          [-1, 256, 35, 35]               0\n      InceptionA-152          [-1, 256, 35, 35]               0\n     BasicConv2d-153           [-1, 32, 35, 35]               0\n     BasicConv2d-154           [-1, 32, 35, 35]               0\n      InceptionA-155          [-1, 256, 35, 35]               0\n      InceptionA-156          [-1, 256, 35, 35]               0\n          Conv2d-157           [-1, 64, 35, 35]          16,384\n          Conv2d-158           [-1, 64, 35, 35]          16,384\n          Conv2d-159           [-1, 64, 35, 35]          16,384\n     BatchNorm2d-160           [-1, 64, 35, 35]             128\n          Conv2d-161           [-1, 64, 35, 35]          16,384\n     BatchNorm2d-162           [-1, 64, 35, 35]             128\n     BatchNorm2d-163           [-1, 64, 35, 35]             128\n     BasicConv2d-164           [-1, 64, 35, 35]               0\n     BasicConv2d-165           [-1, 64, 35, 35]               0\n     BatchNorm2d-166           [-1, 64, 35, 35]             128\n     BasicConv2d-167           [-1, 64, 35, 35]               0\n     BasicConv2d-168           [-1, 64, 35, 35]               0\n          Conv2d-169           [-1, 48, 35, 35]          12,288\n          Conv2d-170           [-1, 48, 35, 35]          12,288\n          Conv2d-171           [-1, 48, 35, 35]          12,288\n     BatchNorm2d-172           [-1, 48, 35, 35]              96\n          Conv2d-173           [-1, 48, 35, 35]          12,288\n     BatchNorm2d-174           [-1, 48, 35, 35]              96\n     BatchNorm2d-175           [-1, 48, 35, 35]              96\n     BasicConv2d-176           [-1, 48, 35, 35]               0\n     BasicConv2d-177           [-1, 48, 35, 35]               0\n     BatchNorm2d-178           [-1, 48, 35, 35]              96\n          Conv2d-179           [-1, 64, 35, 35]          76,800\n     BasicConv2d-180           [-1, 48, 35, 35]               0\n     BasicConv2d-181           [-1, 48, 35, 35]               0\n          Conv2d-182           [-1, 64, 35, 35]          76,800\n          Conv2d-183           [-1, 64, 35, 35]          76,800\n          Conv2d-184           [-1, 64, 35, 35]          76,800\n     BatchNorm2d-185           [-1, 64, 35, 35]             128\n     BatchNorm2d-186           [-1, 64, 35, 35]             128\n     BatchNorm2d-187           [-1, 64, 35, 35]             128\n     BasicConv2d-188           [-1, 64, 35, 35]               0\n     BasicConv2d-189           [-1, 64, 35, 35]               0\n     BatchNorm2d-190           [-1, 64, 35, 35]             128\n          Conv2d-191           [-1, 64, 35, 35]          16,384\n     BasicConv2d-192           [-1, 64, 35, 35]               0\n     BasicConv2d-193           [-1, 64, 35, 35]               0\n          Conv2d-194           [-1, 64, 35, 35]          16,384\n          Conv2d-195           [-1, 64, 35, 35]          16,384\n     BatchNorm2d-196           [-1, 64, 35, 35]             128\n          Conv2d-197           [-1, 64, 35, 35]          16,384\n     BatchNorm2d-198           [-1, 64, 35, 35]             128\n     BatchNorm2d-199           [-1, 64, 35, 35]             128\n     BasicConv2d-200           [-1, 64, 35, 35]               0\n     BasicConv2d-201           [-1, 64, 35, 35]               0\n     BatchNorm2d-202           [-1, 64, 35, 35]             128\n          Conv2d-203           [-1, 96, 35, 35]          55,296\n          Conv2d-204           [-1, 96, 35, 35]          55,296\n     BasicConv2d-205           [-1, 64, 35, 35]               0\n     BasicConv2d-206           [-1, 64, 35, 35]               0\n          Conv2d-207           [-1, 96, 35, 35]          55,296\n     BatchNorm2d-208           [-1, 96, 35, 35]             192\n          Conv2d-209           [-1, 96, 35, 35]          55,296\n     BatchNorm2d-210           [-1, 96, 35, 35]             192\n     BatchNorm2d-211           [-1, 96, 35, 35]             192\n     BasicConv2d-212           [-1, 96, 35, 35]               0\n     BasicConv2d-213           [-1, 96, 35, 35]               0\n     BatchNorm2d-214           [-1, 96, 35, 35]             192\n          Conv2d-215           [-1, 96, 35, 35]          82,944\n          Conv2d-216           [-1, 96, 35, 35]          82,944\n     BasicConv2d-217           [-1, 96, 35, 35]               0\n     BasicConv2d-218           [-1, 96, 35, 35]               0\n     BatchNorm2d-219           [-1, 96, 35, 35]             192\n          Conv2d-220           [-1, 96, 35, 35]          82,944\n     BatchNorm2d-221           [-1, 96, 35, 35]             192\n          Conv2d-222           [-1, 96, 35, 35]          82,944\n     BasicConv2d-223           [-1, 96, 35, 35]               0\n     BasicConv2d-224           [-1, 96, 35, 35]               0\n     BatchNorm2d-225           [-1, 96, 35, 35]             192\n     BatchNorm2d-226           [-1, 96, 35, 35]             192\n          Conv2d-227           [-1, 64, 35, 35]          16,384\n          Conv2d-228           [-1, 64, 35, 35]          16,384\n     BasicConv2d-229           [-1, 96, 35, 35]               0\n     BasicConv2d-230           [-1, 96, 35, 35]               0\n     BatchNorm2d-231           [-1, 64, 35, 35]             128\n     BatchNorm2d-232           [-1, 64, 35, 35]             128\n          Conv2d-233           [-1, 64, 35, 35]          16,384\n          Conv2d-234           [-1, 64, 35, 35]          16,384\n     BasicConv2d-235           [-1, 64, 35, 35]               0\n     BasicConv2d-236           [-1, 64, 35, 35]               0\n     BatchNorm2d-237           [-1, 64, 35, 35]             128\n      InceptionA-238          [-1, 288, 35, 35]               0\n      InceptionA-239          [-1, 288, 35, 35]               0\n     BatchNorm2d-240           [-1, 64, 35, 35]             128\n     BasicConv2d-241           [-1, 64, 35, 35]               0\n     BasicConv2d-242           [-1, 64, 35, 35]               0\n      InceptionA-243          [-1, 288, 35, 35]               0\n      InceptionA-244          [-1, 288, 35, 35]               0\n          Conv2d-245           [-1, 64, 35, 35]          18,432\n          Conv2d-246           [-1, 64, 35, 35]          18,432\n     BatchNorm2d-247           [-1, 64, 35, 35]             128\n     BatchNorm2d-248           [-1, 64, 35, 35]             128\n     BasicConv2d-249           [-1, 64, 35, 35]               0\n     BasicConv2d-250           [-1, 64, 35, 35]               0\n          Conv2d-251           [-1, 64, 35, 35]          18,432\n          Conv2d-252           [-1, 64, 35, 35]          18,432\n     BatchNorm2d-253           [-1, 64, 35, 35]             128\n     BatchNorm2d-254           [-1, 64, 35, 35]             128\n     BasicConv2d-255           [-1, 64, 35, 35]               0\n     BasicConv2d-256           [-1, 64, 35, 35]               0\n          Conv2d-257           [-1, 48, 35, 35]          13,824\n          Conv2d-258           [-1, 48, 35, 35]          13,824\n     BatchNorm2d-259           [-1, 48, 35, 35]              96\n     BatchNorm2d-260           [-1, 48, 35, 35]              96\n     BasicConv2d-261           [-1, 48, 35, 35]               0\n     BasicConv2d-262           [-1, 48, 35, 35]               0\n          Conv2d-263           [-1, 48, 35, 35]          13,824\n          Conv2d-264           [-1, 64, 35, 35]          76,800\n          Conv2d-265           [-1, 48, 35, 35]          13,824\n          Conv2d-266           [-1, 64, 35, 35]          76,800\n     BatchNorm2d-267           [-1, 48, 35, 35]              96\n     BatchNorm2d-268           [-1, 64, 35, 35]             128\n     BatchNorm2d-269           [-1, 48, 35, 35]              96\n     BatchNorm2d-270           [-1, 64, 35, 35]             128\n     BasicConv2d-271           [-1, 48, 35, 35]               0\n     BasicConv2d-272           [-1, 48, 35, 35]               0\n     BasicConv2d-273           [-1, 64, 35, 35]               0\n     BasicConv2d-274           [-1, 64, 35, 35]               0\n          Conv2d-275           [-1, 64, 35, 35]          76,800\n          Conv2d-276           [-1, 64, 35, 35]          18,432\n          Conv2d-277           [-1, 64, 35, 35]          76,800\n          Conv2d-278           [-1, 64, 35, 35]          18,432\n     BatchNorm2d-279           [-1, 64, 35, 35]             128\n     BatchNorm2d-280           [-1, 64, 35, 35]             128\n     BatchNorm2d-281           [-1, 64, 35, 35]             128\n     BatchNorm2d-282           [-1, 64, 35, 35]             128\n     BasicConv2d-283           [-1, 64, 35, 35]               0\n     BasicConv2d-284           [-1, 64, 35, 35]               0\n     BasicConv2d-285           [-1, 64, 35, 35]               0\n     BasicConv2d-286           [-1, 64, 35, 35]               0\n          Conv2d-287           [-1, 64, 35, 35]          18,432\n          Conv2d-288           [-1, 64, 35, 35]          18,432\n          Conv2d-289           [-1, 96, 35, 35]          55,296\n          Conv2d-290           [-1, 96, 35, 35]          55,296\n     BatchNorm2d-291           [-1, 64, 35, 35]             128\n     BatchNorm2d-292           [-1, 96, 35, 35]             192\n     BatchNorm2d-293           [-1, 96, 35, 35]             192\n     BatchNorm2d-294           [-1, 64, 35, 35]             128\n     BasicConv2d-295           [-1, 96, 35, 35]               0\n     BasicConv2d-296           [-1, 96, 35, 35]               0\n     BasicConv2d-297           [-1, 64, 35, 35]               0\n     BasicConv2d-298           [-1, 64, 35, 35]               0\n          Conv2d-299           [-1, 96, 35, 35]          82,944\n          Conv2d-300           [-1, 96, 35, 35]          82,944\n          Conv2d-301           [-1, 96, 35, 35]          55,296\n          Conv2d-302           [-1, 96, 35, 35]          55,296\n     BatchNorm2d-303           [-1, 96, 35, 35]             192\n     BatchNorm2d-304           [-1, 96, 35, 35]             192\n     BatchNorm2d-305           [-1, 96, 35, 35]             192\n     BatchNorm2d-306           [-1, 96, 35, 35]             192\n     BasicConv2d-307           [-1, 96, 35, 35]               0\n     BasicConv2d-308           [-1, 96, 35, 35]               0\n     BasicConv2d-309           [-1, 96, 35, 35]               0\n     BasicConv2d-310           [-1, 96, 35, 35]               0\n          Conv2d-311           [-1, 96, 35, 35]          82,944\n          Conv2d-312           [-1, 64, 35, 35]          18,432\n          Conv2d-313           [-1, 64, 35, 35]          18,432\n          Conv2d-314           [-1, 96, 35, 35]          82,944\n     BatchNorm2d-315           [-1, 64, 35, 35]             128\n     BatchNorm2d-316           [-1, 96, 35, 35]             192\n     BatchNorm2d-317           [-1, 64, 35, 35]             128\n     BatchNorm2d-318           [-1, 96, 35, 35]             192\n     BasicConv2d-319           [-1, 64, 35, 35]               0\n     BasicConv2d-320           [-1, 64, 35, 35]               0\n     BasicConv2d-321           [-1, 96, 35, 35]               0\n     BasicConv2d-322           [-1, 96, 35, 35]               0\n      InceptionA-323          [-1, 288, 35, 35]               0\n      InceptionA-324          [-1, 288, 35, 35]               0\n          Conv2d-325           [-1, 64, 35, 35]          18,432\n          Conv2d-326           [-1, 64, 35, 35]          18,432\n     BatchNorm2d-327           [-1, 64, 35, 35]             128\n     BatchNorm2d-328           [-1, 64, 35, 35]             128\n     BasicConv2d-329           [-1, 64, 35, 35]               0\n     BasicConv2d-330           [-1, 64, 35, 35]               0\n      InceptionA-331          [-1, 288, 35, 35]               0\n      InceptionA-332          [-1, 288, 35, 35]               0\n          Conv2d-333          [-1, 384, 17, 17]         995,328\n          Conv2d-334          [-1, 384, 17, 17]         995,328\n     BatchNorm2d-335          [-1, 384, 17, 17]             768\n     BatchNorm2d-336          [-1, 384, 17, 17]             768\n     BasicConv2d-337          [-1, 384, 17, 17]               0\n     BasicConv2d-338          [-1, 384, 17, 17]               0\n          Conv2d-339           [-1, 64, 35, 35]          18,432\n          Conv2d-340           [-1, 64, 35, 35]          18,432\n     BatchNorm2d-341           [-1, 64, 35, 35]             128\n     BatchNorm2d-342           [-1, 64, 35, 35]             128\n          Conv2d-343          [-1, 384, 17, 17]         995,328\n          Conv2d-344          [-1, 384, 17, 17]         995,328\n     BasicConv2d-345           [-1, 64, 35, 35]               0\n     BasicConv2d-346           [-1, 64, 35, 35]               0\n     BatchNorm2d-347          [-1, 384, 17, 17]             768\n          Conv2d-348           [-1, 96, 35, 35]          55,296\n     BatchNorm2d-349          [-1, 384, 17, 17]             768\n          Conv2d-350           [-1, 96, 35, 35]          55,296\n     BasicConv2d-351          [-1, 384, 17, 17]               0\n     BasicConv2d-352          [-1, 384, 17, 17]               0\n     BatchNorm2d-353           [-1, 96, 35, 35]             192\n          Conv2d-354           [-1, 64, 35, 35]          18,432\n     BatchNorm2d-355           [-1, 96, 35, 35]             192\n          Conv2d-356           [-1, 64, 35, 35]          18,432\n     BasicConv2d-357           [-1, 96, 35, 35]               0\n     BasicConv2d-358           [-1, 96, 35, 35]               0\n     BatchNorm2d-359           [-1, 64, 35, 35]             128\n     BatchNorm2d-360           [-1, 64, 35, 35]             128\n     BasicConv2d-361           [-1, 64, 35, 35]               0\n     BasicConv2d-362           [-1, 64, 35, 35]               0\n          Conv2d-363           [-1, 96, 35, 35]          55,296\n          Conv2d-364           [-1, 96, 35, 35]          55,296\n     BatchNorm2d-365           [-1, 96, 35, 35]             192\n     BatchNorm2d-366           [-1, 96, 35, 35]             192\n     BasicConv2d-367           [-1, 96, 35, 35]               0\n     BasicConv2d-368           [-1, 96, 35, 35]               0\n          Conv2d-369           [-1, 96, 17, 17]          82,944\n          Conv2d-370           [-1, 96, 17, 17]          82,944\n          Conv2d-371           [-1, 96, 17, 17]          82,944\n          Conv2d-372           [-1, 96, 17, 17]          82,944\n     BatchNorm2d-373           [-1, 96, 17, 17]             192\n     BatchNorm2d-374           [-1, 96, 17, 17]             192\n     BatchNorm2d-375           [-1, 96, 17, 17]             192\n     BatchNorm2d-376           [-1, 96, 17, 17]             192\n     BasicConv2d-377           [-1, 96, 17, 17]               0\n     BasicConv2d-378           [-1, 96, 17, 17]               0\n     BasicConv2d-379           [-1, 96, 17, 17]               0\n     BasicConv2d-380           [-1, 96, 17, 17]               0\n      InceptionB-381          [-1, 768, 17, 17]               0\n      InceptionB-382          [-1, 768, 17, 17]               0\n      InceptionB-383          [-1, 768, 17, 17]               0\n      InceptionB-384          [-1, 768, 17, 17]               0\n          Conv2d-385          [-1, 192, 17, 17]         147,456\n          Conv2d-386          [-1, 192, 17, 17]         147,456\n          Conv2d-387          [-1, 192, 17, 17]         147,456\n          Conv2d-388          [-1, 192, 17, 17]         147,456\n     BatchNorm2d-389          [-1, 192, 17, 17]             384\n     BatchNorm2d-390          [-1, 192, 17, 17]             384\n     BatchNorm2d-391          [-1, 192, 17, 17]             384\n     BasicConv2d-392          [-1, 192, 17, 17]               0\n     BasicConv2d-393          [-1, 192, 17, 17]               0\n     BatchNorm2d-394          [-1, 192, 17, 17]             384\n     BasicConv2d-395          [-1, 192, 17, 17]               0\n     BasicConv2d-396          [-1, 192, 17, 17]               0\n          Conv2d-397          [-1, 128, 17, 17]          98,304\n          Conv2d-398          [-1, 128, 17, 17]          98,304\n          Conv2d-399          [-1, 128, 17, 17]          98,304\n     BatchNorm2d-400          [-1, 128, 17, 17]             256\n          Conv2d-401          [-1, 128, 17, 17]          98,304\n     BatchNorm2d-402          [-1, 128, 17, 17]             256\n     BatchNorm2d-403          [-1, 128, 17, 17]             256\n     BasicConv2d-404          [-1, 128, 17, 17]               0\n     BasicConv2d-405          [-1, 128, 17, 17]               0\n     BatchNorm2d-406          [-1, 128, 17, 17]             256\n     BasicConv2d-407          [-1, 128, 17, 17]               0\n     BasicConv2d-408          [-1, 128, 17, 17]               0\n          Conv2d-409          [-1, 128, 17, 17]         114,688\n          Conv2d-410          [-1, 128, 17, 17]         114,688\n          Conv2d-411          [-1, 128, 17, 17]         114,688\n          Conv2d-412          [-1, 128, 17, 17]         114,688\n     BatchNorm2d-413          [-1, 128, 17, 17]             256\n     BatchNorm2d-414          [-1, 128, 17, 17]             256\n     BatchNorm2d-415          [-1, 128, 17, 17]             256\n     BatchNorm2d-416          [-1, 128, 17, 17]             256\n     BasicConv2d-417          [-1, 128, 17, 17]               0\n     BasicConv2d-418          [-1, 128, 17, 17]               0\n     BasicConv2d-419          [-1, 128, 17, 17]               0\n     BasicConv2d-420          [-1, 128, 17, 17]               0\n          Conv2d-421          [-1, 192, 17, 17]         172,032\n          Conv2d-422          [-1, 192, 17, 17]         172,032\n          Conv2d-423          [-1, 192, 17, 17]         172,032\n          Conv2d-424          [-1, 192, 17, 17]         172,032\n     BatchNorm2d-425          [-1, 192, 17, 17]             384\n     BatchNorm2d-426          [-1, 192, 17, 17]             384\n     BatchNorm2d-427          [-1, 192, 17, 17]             384\n     BatchNorm2d-428          [-1, 192, 17, 17]             384\n     BasicConv2d-429          [-1, 192, 17, 17]               0\n     BasicConv2d-430          [-1, 192, 17, 17]               0\n     BasicConv2d-431          [-1, 192, 17, 17]               0\n     BasicConv2d-432          [-1, 192, 17, 17]               0\n          Conv2d-433          [-1, 128, 17, 17]          98,304\n          Conv2d-434          [-1, 128, 17, 17]          98,304\n          Conv2d-435          [-1, 128, 17, 17]          98,304\n          Conv2d-436          [-1, 128, 17, 17]          98,304\n     BatchNorm2d-437          [-1, 128, 17, 17]             256\n     BatchNorm2d-438          [-1, 128, 17, 17]             256\n     BatchNorm2d-439          [-1, 128, 17, 17]             256\n     BatchNorm2d-440          [-1, 128, 17, 17]             256\n     BasicConv2d-441          [-1, 128, 17, 17]               0\n     BasicConv2d-442          [-1, 128, 17, 17]               0\n     BasicConv2d-443          [-1, 128, 17, 17]               0\n     BasicConv2d-444          [-1, 128, 17, 17]               0\n          Conv2d-445          [-1, 128, 17, 17]         114,688\n          Conv2d-446          [-1, 128, 17, 17]         114,688\n          Conv2d-447          [-1, 128, 17, 17]         114,688\n     BatchNorm2d-448          [-1, 128, 17, 17]             256\n          Conv2d-449          [-1, 128, 17, 17]         114,688\n     BatchNorm2d-450          [-1, 128, 17, 17]             256\n     BatchNorm2d-451          [-1, 128, 17, 17]             256\n     BatchNorm2d-452          [-1, 128, 17, 17]             256\n     BasicConv2d-453          [-1, 128, 17, 17]               0\n     BasicConv2d-454          [-1, 128, 17, 17]               0\n     BasicConv2d-455          [-1, 128, 17, 17]               0\n     BasicConv2d-456          [-1, 128, 17, 17]               0\n          Conv2d-457          [-1, 128, 17, 17]         114,688\n          Conv2d-458          [-1, 128, 17, 17]         114,688\n          Conv2d-459          [-1, 128, 17, 17]         114,688\n     BatchNorm2d-460          [-1, 128, 17, 17]             256\n          Conv2d-461          [-1, 128, 17, 17]         114,688\n     BatchNorm2d-462          [-1, 128, 17, 17]             256\n     BatchNorm2d-463          [-1, 128, 17, 17]             256\n     BasicConv2d-464          [-1, 128, 17, 17]               0\n     BasicConv2d-465          [-1, 128, 17, 17]               0\n     BatchNorm2d-466          [-1, 128, 17, 17]             256\n          Conv2d-467          [-1, 128, 17, 17]         114,688\n     BasicConv2d-468          [-1, 128, 17, 17]               0\n     BasicConv2d-469          [-1, 128, 17, 17]               0\n          Conv2d-470          [-1, 128, 17, 17]         114,688\n          Conv2d-471          [-1, 128, 17, 17]         114,688\n     BatchNorm2d-472          [-1, 128, 17, 17]             256\n          Conv2d-473          [-1, 128, 17, 17]         114,688\n     BatchNorm2d-474          [-1, 128, 17, 17]             256\n     BatchNorm2d-475          [-1, 128, 17, 17]             256\n     BasicConv2d-476          [-1, 128, 17, 17]               0\n     BasicConv2d-477          [-1, 128, 17, 17]               0\n     BatchNorm2d-478          [-1, 128, 17, 17]             256\n     BasicConv2d-479          [-1, 128, 17, 17]               0\n     BasicConv2d-480          [-1, 128, 17, 17]               0\n          Conv2d-481          [-1, 192, 17, 17]         172,032\n          Conv2d-482          [-1, 192, 17, 17]         172,032\n          Conv2d-483          [-1, 192, 17, 17]         172,032\n     BatchNorm2d-484          [-1, 192, 17, 17]             384\n          Conv2d-485          [-1, 192, 17, 17]         172,032\n     BatchNorm2d-486          [-1, 192, 17, 17]             384\n     BatchNorm2d-487          [-1, 192, 17, 17]             384\n     BasicConv2d-488          [-1, 192, 17, 17]               0\n     BasicConv2d-489          [-1, 192, 17, 17]               0\n     BatchNorm2d-490          [-1, 192, 17, 17]             384\n          Conv2d-491          [-1, 192, 17, 17]         147,456\n     BasicConv2d-492          [-1, 192, 17, 17]               0\n     BasicConv2d-493          [-1, 192, 17, 17]               0\n          Conv2d-494          [-1, 192, 17, 17]         147,456\n          Conv2d-495          [-1, 192, 17, 17]         147,456\n     BatchNorm2d-496          [-1, 192, 17, 17]             384\n          Conv2d-497          [-1, 192, 17, 17]         147,456\n     BatchNorm2d-498          [-1, 192, 17, 17]             384\n     BatchNorm2d-499          [-1, 192, 17, 17]             384\n     BasicConv2d-500          [-1, 192, 17, 17]               0\n     BasicConv2d-501          [-1, 192, 17, 17]               0\n     BatchNorm2d-502          [-1, 192, 17, 17]             384\n      InceptionC-503          [-1, 768, 17, 17]               0\n      InceptionC-504          [-1, 768, 17, 17]               0\n     BasicConv2d-505          [-1, 192, 17, 17]               0\n     BasicConv2d-506          [-1, 192, 17, 17]               0\n          Conv2d-507          [-1, 192, 17, 17]         147,456\n      InceptionC-508          [-1, 768, 17, 17]               0\n      InceptionC-509          [-1, 768, 17, 17]               0\n          Conv2d-510          [-1, 192, 17, 17]         147,456\n          Conv2d-511          [-1, 192, 17, 17]         147,456\n     BatchNorm2d-512          [-1, 192, 17, 17]             384\n          Conv2d-513          [-1, 192, 17, 17]         147,456\n     BatchNorm2d-514          [-1, 192, 17, 17]             384\n     BatchNorm2d-515          [-1, 192, 17, 17]             384\n     BasicConv2d-516          [-1, 192, 17, 17]               0\n     BasicConv2d-517          [-1, 192, 17, 17]               0\n     BatchNorm2d-518          [-1, 192, 17, 17]             384\n     BasicConv2d-519          [-1, 192, 17, 17]               0\n     BasicConv2d-520          [-1, 192, 17, 17]               0\n          Conv2d-521          [-1, 160, 17, 17]         122,880\n          Conv2d-522          [-1, 160, 17, 17]         122,880\n          Conv2d-523          [-1, 160, 17, 17]         122,880\n          Conv2d-524          [-1, 160, 17, 17]         122,880\n     BatchNorm2d-525          [-1, 160, 17, 17]             320\n     BatchNorm2d-526          [-1, 160, 17, 17]             320\n     BatchNorm2d-527          [-1, 160, 17, 17]             320\n     BatchNorm2d-528          [-1, 160, 17, 17]             320\n     BasicConv2d-529          [-1, 160, 17, 17]               0\n     BasicConv2d-530          [-1, 160, 17, 17]               0\n     BasicConv2d-531          [-1, 160, 17, 17]               0\n     BasicConv2d-532          [-1, 160, 17, 17]               0\n          Conv2d-533          [-1, 160, 17, 17]         179,200\n          Conv2d-534          [-1, 160, 17, 17]         179,200\n     BatchNorm2d-535          [-1, 160, 17, 17]             320\n          Conv2d-536          [-1, 160, 17, 17]         179,200\n     BatchNorm2d-537          [-1, 160, 17, 17]             320\n          Conv2d-538          [-1, 160, 17, 17]         179,200\n     BasicConv2d-539          [-1, 160, 17, 17]               0\n     BasicConv2d-540          [-1, 160, 17, 17]               0\n     BatchNorm2d-541          [-1, 160, 17, 17]             320\n     BatchNorm2d-542          [-1, 160, 17, 17]             320\n     BasicConv2d-543          [-1, 160, 17, 17]               0\n     BasicConv2d-544          [-1, 160, 17, 17]               0\n          Conv2d-545          [-1, 192, 17, 17]         215,040\n          Conv2d-546          [-1, 192, 17, 17]         215,040\n     BatchNorm2d-547          [-1, 192, 17, 17]             384\n     BatchNorm2d-548          [-1, 192, 17, 17]             384\n          Conv2d-549          [-1, 192, 17, 17]         215,040\n          Conv2d-550          [-1, 192, 17, 17]         215,040\n     BasicConv2d-551          [-1, 192, 17, 17]               0\n     BasicConv2d-552          [-1, 192, 17, 17]               0\n          Conv2d-553          [-1, 160, 17, 17]         122,880\n     BatchNorm2d-554          [-1, 192, 17, 17]             384\n          Conv2d-555          [-1, 160, 17, 17]         122,880\n     BatchNorm2d-556          [-1, 192, 17, 17]             384\n     BatchNorm2d-557          [-1, 160, 17, 17]             320\n     BasicConv2d-558          [-1, 192, 17, 17]               0\n     BasicConv2d-559          [-1, 192, 17, 17]               0\n     BatchNorm2d-560          [-1, 160, 17, 17]             320\n          Conv2d-561          [-1, 160, 17, 17]         122,880\n          Conv2d-562          [-1, 160, 17, 17]         122,880\n     BasicConv2d-563          [-1, 160, 17, 17]               0\n     BasicConv2d-564          [-1, 160, 17, 17]               0\n     BatchNorm2d-565          [-1, 160, 17, 17]             320\n     BatchNorm2d-566          [-1, 160, 17, 17]             320\n     BasicConv2d-567          [-1, 160, 17, 17]               0\n     BasicConv2d-568          [-1, 160, 17, 17]               0\n          Conv2d-569          [-1, 160, 17, 17]         179,200\n          Conv2d-570          [-1, 160, 17, 17]         179,200\n     BatchNorm2d-571          [-1, 160, 17, 17]             320\n     BatchNorm2d-572          [-1, 160, 17, 17]             320\n     BasicConv2d-573          [-1, 160, 17, 17]               0\n     BasicConv2d-574          [-1, 160, 17, 17]               0\n          Conv2d-575          [-1, 160, 17, 17]         179,200\n          Conv2d-576          [-1, 160, 17, 17]         179,200\n          Conv2d-577          [-1, 160, 17, 17]         179,200\n          Conv2d-578          [-1, 160, 17, 17]         179,200\n     BatchNorm2d-579          [-1, 160, 17, 17]             320\n     BatchNorm2d-580          [-1, 160, 17, 17]             320\n     BatchNorm2d-581          [-1, 160, 17, 17]             320\n     BatchNorm2d-582          [-1, 160, 17, 17]             320\n     BasicConv2d-583          [-1, 160, 17, 17]               0\n     BasicConv2d-584          [-1, 160, 17, 17]               0\n     BasicConv2d-585          [-1, 160, 17, 17]               0\n     BasicConv2d-586          [-1, 160, 17, 17]               0\n          Conv2d-587          [-1, 160, 17, 17]         179,200\n          Conv2d-588          [-1, 160, 17, 17]         179,200\n          Conv2d-589          [-1, 160, 17, 17]         179,200\n     BatchNorm2d-590          [-1, 160, 17, 17]             320\n          Conv2d-591          [-1, 160, 17, 17]         179,200\n     BatchNorm2d-592          [-1, 160, 17, 17]             320\n     BatchNorm2d-593          [-1, 160, 17, 17]             320\n     BasicConv2d-594          [-1, 160, 17, 17]               0\n     BasicConv2d-595          [-1, 160, 17, 17]               0\n     BatchNorm2d-596          [-1, 160, 17, 17]             320\n     BasicConv2d-597          [-1, 160, 17, 17]               0\n     BasicConv2d-598          [-1, 160, 17, 17]               0\n          Conv2d-599          [-1, 160, 17, 17]         179,200\n          Conv2d-600          [-1, 160, 17, 17]         179,200\n     BatchNorm2d-601          [-1, 160, 17, 17]             320\n     BatchNorm2d-602          [-1, 160, 17, 17]             320\n     BasicConv2d-603          [-1, 160, 17, 17]               0\n     BasicConv2d-604          [-1, 160, 17, 17]               0\n          Conv2d-605          [-1, 192, 17, 17]         215,040\n          Conv2d-606          [-1, 192, 17, 17]         215,040\n     BatchNorm2d-607          [-1, 192, 17, 17]             384\n     BatchNorm2d-608          [-1, 192, 17, 17]             384\n     BasicConv2d-609          [-1, 192, 17, 17]               0\n     BasicConv2d-610          [-1, 192, 17, 17]               0\n          Conv2d-611          [-1, 192, 17, 17]         147,456\n          Conv2d-612          [-1, 192, 17, 17]         147,456\n     BatchNorm2d-613          [-1, 192, 17, 17]             384\n          Conv2d-614          [-1, 192, 17, 17]         215,040\n     BatchNorm2d-615          [-1, 192, 17, 17]             384\n          Conv2d-616          [-1, 192, 17, 17]         215,040\n     BasicConv2d-617          [-1, 192, 17, 17]               0\n     BasicConv2d-618          [-1, 192, 17, 17]               0\n     BatchNorm2d-619          [-1, 192, 17, 17]             384\n      InceptionC-620          [-1, 768, 17, 17]               0\n      InceptionC-621          [-1, 768, 17, 17]               0\n     BatchNorm2d-622          [-1, 192, 17, 17]             384\n          Conv2d-623          [-1, 192, 17, 17]         147,456\n          Conv2d-624          [-1, 192, 17, 17]         147,456\n     BasicConv2d-625          [-1, 192, 17, 17]               0\n     BasicConv2d-626          [-1, 192, 17, 17]               0\n     BatchNorm2d-627          [-1, 192, 17, 17]             384\n     BatchNorm2d-628          [-1, 192, 17, 17]             384\n          Conv2d-629          [-1, 192, 17, 17]         147,456\n          Conv2d-630          [-1, 192, 17, 17]         147,456\n     BasicConv2d-631          [-1, 192, 17, 17]               0\n     BasicConv2d-632          [-1, 192, 17, 17]               0\n          Conv2d-633          [-1, 160, 17, 17]         122,880\n          Conv2d-634          [-1, 160, 17, 17]         122,880\n     BatchNorm2d-635          [-1, 192, 17, 17]             384\n     BatchNorm2d-636          [-1, 192, 17, 17]             384\n     BatchNorm2d-637          [-1, 160, 17, 17]             320\n     BasicConv2d-638          [-1, 192, 17, 17]               0\n     BasicConv2d-639          [-1, 192, 17, 17]               0\n     BatchNorm2d-640          [-1, 160, 17, 17]             320\n      InceptionC-641          [-1, 768, 17, 17]               0\n      InceptionC-642          [-1, 768, 17, 17]               0\n          Conv2d-643          [-1, 192, 17, 17]         147,456\n     BasicConv2d-644          [-1, 160, 17, 17]               0\n     BasicConv2d-645          [-1, 160, 17, 17]               0\n          Conv2d-646          [-1, 192, 17, 17]         147,456\n          Conv2d-647          [-1, 160, 17, 17]         179,200\n     BatchNorm2d-648          [-1, 192, 17, 17]             384\n          Conv2d-649          [-1, 160, 17, 17]         179,200\n     BatchNorm2d-650          [-1, 192, 17, 17]             384\n     BatchNorm2d-651          [-1, 160, 17, 17]             320\n     BasicConv2d-652          [-1, 192, 17, 17]               0\n     BasicConv2d-653          [-1, 192, 17, 17]               0\n     BatchNorm2d-654          [-1, 160, 17, 17]             320\n          Conv2d-655          [-1, 160, 17, 17]         122,880\n     BasicConv2d-656          [-1, 160, 17, 17]               0\n     BasicConv2d-657          [-1, 160, 17, 17]               0\n          Conv2d-658          [-1, 160, 17, 17]         122,880\n          Conv2d-659          [-1, 192, 17, 17]         215,040\n     BatchNorm2d-660          [-1, 160, 17, 17]             320\n          Conv2d-661          [-1, 192, 17, 17]         215,040\n     BatchNorm2d-662          [-1, 160, 17, 17]             320\n     BatchNorm2d-663          [-1, 192, 17, 17]             384\n     BasicConv2d-664          [-1, 160, 17, 17]               0\n     BasicConv2d-665          [-1, 160, 17, 17]               0\n     BatchNorm2d-666          [-1, 192, 17, 17]             384\n     BasicConv2d-667          [-1, 192, 17, 17]               0\n     BasicConv2d-668          [-1, 192, 17, 17]               0\n          Conv2d-669          [-1, 160, 17, 17]         179,200\n          Conv2d-670          [-1, 160, 17, 17]         122,880\n          Conv2d-671          [-1, 160, 17, 17]         179,200\n          Conv2d-672          [-1, 160, 17, 17]         122,880\n     BatchNorm2d-673          [-1, 160, 17, 17]             320\n     BatchNorm2d-674          [-1, 160, 17, 17]             320\n     BatchNorm2d-675          [-1, 160, 17, 17]             320\n     BatchNorm2d-676          [-1, 160, 17, 17]             320\n     BasicConv2d-677          [-1, 160, 17, 17]               0\n     BasicConv2d-678          [-1, 160, 17, 17]               0\n     BasicConv2d-679          [-1, 160, 17, 17]               0\n     BasicConv2d-680          [-1, 160, 17, 17]               0\n          Conv2d-681          [-1, 160, 17, 17]         179,200\n          Conv2d-682          [-1, 160, 17, 17]         179,200\n          Conv2d-683          [-1, 192, 17, 17]         215,040\n     BatchNorm2d-684          [-1, 160, 17, 17]             320\n          Conv2d-685          [-1, 192, 17, 17]         215,040\n     BatchNorm2d-686          [-1, 160, 17, 17]             320\n     BasicConv2d-687          [-1, 160, 17, 17]               0\n     BasicConv2d-688          [-1, 160, 17, 17]               0\n     BatchNorm2d-689          [-1, 192, 17, 17]             384\n     BatchNorm2d-690          [-1, 192, 17, 17]             384\n          Conv2d-691          [-1, 160, 17, 17]         179,200\n          Conv2d-692          [-1, 160, 17, 17]         179,200\n     BasicConv2d-693          [-1, 192, 17, 17]               0\n     BasicConv2d-694          [-1, 192, 17, 17]               0\n     BatchNorm2d-695          [-1, 160, 17, 17]             320\n     BatchNorm2d-696          [-1, 160, 17, 17]             320\n          Conv2d-697          [-1, 160, 17, 17]         122,880\n          Conv2d-698          [-1, 160, 17, 17]         122,880\n     BasicConv2d-699          [-1, 160, 17, 17]               0\n     BasicConv2d-700          [-1, 160, 17, 17]               0\n          Conv2d-701          [-1, 160, 17, 17]         179,200\n     BatchNorm2d-702          [-1, 160, 17, 17]             320\n          Conv2d-703          [-1, 160, 17, 17]         179,200\n     BatchNorm2d-704          [-1, 160, 17, 17]             320\n     BatchNorm2d-705          [-1, 160, 17, 17]             320\n     BasicConv2d-706          [-1, 160, 17, 17]               0\n     BasicConv2d-707          [-1, 160, 17, 17]               0\n     BatchNorm2d-708          [-1, 160, 17, 17]             320\n     BasicConv2d-709          [-1, 160, 17, 17]               0\n     BasicConv2d-710          [-1, 160, 17, 17]               0\n          Conv2d-711          [-1, 160, 17, 17]         179,200\n          Conv2d-712          [-1, 160, 17, 17]         179,200\n          Conv2d-713          [-1, 192, 17, 17]         215,040\n          Conv2d-714          [-1, 192, 17, 17]         215,040\n     BatchNorm2d-715          [-1, 160, 17, 17]             320\n     BatchNorm2d-716          [-1, 192, 17, 17]             384\n     BatchNorm2d-717          [-1, 160, 17, 17]             320\n     BatchNorm2d-718          [-1, 192, 17, 17]             384\n     BasicConv2d-719          [-1, 160, 17, 17]               0\n     BasicConv2d-720          [-1, 160, 17, 17]               0\n     BasicConv2d-721          [-1, 192, 17, 17]               0\n     BasicConv2d-722          [-1, 192, 17, 17]               0\n          Conv2d-723          [-1, 160, 17, 17]         179,200\n          Conv2d-724          [-1, 192, 17, 17]         147,456\n          Conv2d-725          [-1, 160, 17, 17]         179,200\n          Conv2d-726          [-1, 192, 17, 17]         147,456\n     BatchNorm2d-727          [-1, 160, 17, 17]             320\n     BatchNorm2d-728          [-1, 192, 17, 17]             384\n     BatchNorm2d-729          [-1, 160, 17, 17]             320\n     BatchNorm2d-730          [-1, 192, 17, 17]             384\n     BasicConv2d-731          [-1, 160, 17, 17]               0\n     BasicConv2d-732          [-1, 160, 17, 17]               0\n     BasicConv2d-733          [-1, 192, 17, 17]               0\n     BasicConv2d-734          [-1, 192, 17, 17]               0\n      InceptionC-735          [-1, 768, 17, 17]               0\n      InceptionC-736          [-1, 768, 17, 17]               0\n          Conv2d-737          [-1, 160, 17, 17]         179,200\n          Conv2d-738          [-1, 192, 17, 17]         147,456\n          Conv2d-739          [-1, 160, 17, 17]         179,200\n          Conv2d-740          [-1, 192, 17, 17]         147,456\n     BatchNorm2d-741          [-1, 192, 17, 17]             384\n     BatchNorm2d-742          [-1, 192, 17, 17]             384\n     BatchNorm2d-743          [-1, 160, 17, 17]             320\n     BatchNorm2d-744          [-1, 160, 17, 17]             320\n     BasicConv2d-745          [-1, 192, 17, 17]               0\n     BasicConv2d-746          [-1, 192, 17, 17]               0\n     BasicConv2d-747          [-1, 160, 17, 17]               0\n     BasicConv2d-748          [-1, 160, 17, 17]               0\n          Conv2d-749          [-1, 192, 17, 17]         147,456\n          Conv2d-750          [-1, 192, 17, 17]         147,456\n          Conv2d-751          [-1, 192, 17, 17]         215,040\n     BatchNorm2d-752          [-1, 192, 17, 17]             384\n          Conv2d-753          [-1, 192, 17, 17]         215,040\n     BatchNorm2d-754          [-1, 192, 17, 17]             384\n     BatchNorm2d-755          [-1, 192, 17, 17]             384\n     BasicConv2d-756          [-1, 192, 17, 17]               0\n     BasicConv2d-757          [-1, 192, 17, 17]               0\n     BatchNorm2d-758          [-1, 192, 17, 17]             384\n     BasicConv2d-759          [-1, 192, 17, 17]               0\n     BasicConv2d-760          [-1, 192, 17, 17]               0\n          Conv2d-761          [-1, 192, 17, 17]         147,456\n          Conv2d-762          [-1, 192, 17, 17]         147,456\n     BatchNorm2d-763          [-1, 192, 17, 17]             384\n     BatchNorm2d-764          [-1, 192, 17, 17]             384\n     BasicConv2d-765          [-1, 192, 17, 17]               0\n     BasicConv2d-766          [-1, 192, 17, 17]               0\n          Conv2d-767          [-1, 192, 17, 17]         258,048\n          Conv2d-768          [-1, 192, 17, 17]         258,048\n     BatchNorm2d-769          [-1, 192, 17, 17]             384\n     BatchNorm2d-770          [-1, 192, 17, 17]             384\n     BasicConv2d-771          [-1, 192, 17, 17]               0\n     BasicConv2d-772          [-1, 192, 17, 17]               0\n          Conv2d-773          [-1, 192, 17, 17]         258,048\n          Conv2d-774          [-1, 192, 17, 17]         258,048\n     BatchNorm2d-775          [-1, 192, 17, 17]             384\n     BatchNorm2d-776          [-1, 192, 17, 17]             384\n     BasicConv2d-777          [-1, 192, 17, 17]               0\n     BasicConv2d-778          [-1, 192, 17, 17]               0\n          Conv2d-779          [-1, 192, 17, 17]         147,456\n          Conv2d-780          [-1, 192, 17, 17]         147,456\n     BatchNorm2d-781          [-1, 192, 17, 17]             384\n     BatchNorm2d-782          [-1, 192, 17, 17]             384\n     BasicConv2d-783          [-1, 192, 17, 17]               0\n     BasicConv2d-784          [-1, 192, 17, 17]               0\n          Conv2d-785          [-1, 192, 17, 17]         258,048\n          Conv2d-786          [-1, 192, 17, 17]         258,048\n     BatchNorm2d-787          [-1, 192, 17, 17]             384\n     BatchNorm2d-788          [-1, 192, 17, 17]             384\n     BasicConv2d-789          [-1, 192, 17, 17]               0\n     BasicConv2d-790          [-1, 192, 17, 17]               0\n          Conv2d-791          [-1, 192, 17, 17]         258,048\n          Conv2d-792          [-1, 192, 17, 17]         258,048\n     BatchNorm2d-793          [-1, 192, 17, 17]             384\n     BatchNorm2d-794          [-1, 192, 17, 17]             384\n     BasicConv2d-795          [-1, 192, 17, 17]               0\n     BasicConv2d-796          [-1, 192, 17, 17]               0\n          Conv2d-797          [-1, 192, 17, 17]         258,048\n          Conv2d-798          [-1, 192, 17, 17]         258,048\n     BatchNorm2d-799          [-1, 192, 17, 17]             384\n     BatchNorm2d-800          [-1, 192, 17, 17]             384\n     BasicConv2d-801          [-1, 192, 17, 17]               0\n     BasicConv2d-802          [-1, 192, 17, 17]               0\n          Conv2d-803          [-1, 192, 17, 17]         258,048\n          Conv2d-804          [-1, 192, 17, 17]         258,048\n     BatchNorm2d-805          [-1, 192, 17, 17]             384\n     BatchNorm2d-806          [-1, 192, 17, 17]             384\n     BasicConv2d-807          [-1, 192, 17, 17]               0\n     BasicConv2d-808          [-1, 192, 17, 17]               0\n          Conv2d-809          [-1, 192, 17, 17]         147,456\n          Conv2d-810          [-1, 192, 17, 17]         147,456\n     BatchNorm2d-811          [-1, 192, 17, 17]             384\n     BatchNorm2d-812          [-1, 192, 17, 17]             384\n     BasicConv2d-813          [-1, 192, 17, 17]               0\n     BasicConv2d-814          [-1, 192, 17, 17]               0\n      InceptionC-815          [-1, 768, 17, 17]               0\n      InceptionC-816          [-1, 768, 17, 17]               0\n          Conv2d-817          [-1, 192, 17, 17]         147,456\n          Conv2d-818          [-1, 192, 17, 17]         147,456\n     BatchNorm2d-819          [-1, 192, 17, 17]             384\n     BatchNorm2d-820          [-1, 192, 17, 17]             384\n     BasicConv2d-821          [-1, 192, 17, 17]               0\n     BasicConv2d-822          [-1, 192, 17, 17]               0\n          Conv2d-823            [-1, 320, 8, 8]         552,960\n          Conv2d-824            [-1, 320, 8, 8]         552,960\n     BatchNorm2d-825            [-1, 320, 8, 8]             640\n     BatchNorm2d-826            [-1, 320, 8, 8]             640\n     BasicConv2d-827            [-1, 320, 8, 8]               0\n     BasicConv2d-828            [-1, 320, 8, 8]               0\n          Conv2d-829          [-1, 192, 17, 17]         147,456\n          Conv2d-830          [-1, 192, 17, 17]         147,456\n     BatchNorm2d-831          [-1, 192, 17, 17]             384\n     BatchNorm2d-832          [-1, 192, 17, 17]             384\n     BasicConv2d-833          [-1, 192, 17, 17]               0\n     BasicConv2d-834          [-1, 192, 17, 17]               0\n          Conv2d-835          [-1, 192, 17, 17]         258,048\n          Conv2d-836          [-1, 192, 17, 17]         258,048\n     BatchNorm2d-837          [-1, 192, 17, 17]             384\n     BatchNorm2d-838          [-1, 192, 17, 17]             384\n     BasicConv2d-839          [-1, 192, 17, 17]               0\n     BasicConv2d-840          [-1, 192, 17, 17]               0\n          Conv2d-841          [-1, 192, 17, 17]         258,048\n          Conv2d-842          [-1, 192, 17, 17]         258,048\n     BatchNorm2d-843          [-1, 192, 17, 17]             384\n     BatchNorm2d-844          [-1, 192, 17, 17]             384\n     BasicConv2d-845          [-1, 192, 17, 17]               0\n     BasicConv2d-846          [-1, 192, 17, 17]               0\n          Conv2d-847            [-1, 192, 8, 8]         331,776\n          Conv2d-848            [-1, 192, 8, 8]         331,776\n     BatchNorm2d-849            [-1, 192, 8, 8]             384\n     BatchNorm2d-850            [-1, 192, 8, 8]             384\n     BasicConv2d-851            [-1, 192, 8, 8]               0\n     BasicConv2d-852            [-1, 192, 8, 8]               0\n      InceptionD-853           [-1, 1280, 8, 8]               0\n      InceptionD-854           [-1, 1280, 8, 8]               0\n          Conv2d-855            [-1, 320, 8, 8]         409,600\n          Conv2d-856            [-1, 320, 8, 8]         409,600\n     BatchNorm2d-857            [-1, 320, 8, 8]             640\n     BatchNorm2d-858            [-1, 320, 8, 8]             640\n     BasicConv2d-859            [-1, 320, 8, 8]               0\n     BasicConv2d-860            [-1, 320, 8, 8]               0\n      InceptionC-861          [-1, 768, 17, 17]               0\n      InceptionC-862          [-1, 768, 17, 17]               0\n          Conv2d-863            [-1, 384, 8, 8]         491,520\n          Conv2d-864          [-1, 192, 17, 17]         147,456\n          Conv2d-865            [-1, 384, 8, 8]         491,520\n          Conv2d-866          [-1, 192, 17, 17]         147,456\n     BatchNorm2d-867            [-1, 384, 8, 8]             768\n     BatchNorm2d-868          [-1, 192, 17, 17]             384\n     BatchNorm2d-869            [-1, 384, 8, 8]             768\n     BatchNorm2d-870          [-1, 192, 17, 17]             384\n     BasicConv2d-871          [-1, 192, 17, 17]               0\n     BasicConv2d-872          [-1, 192, 17, 17]               0\n     BasicConv2d-873            [-1, 384, 8, 8]               0\n     BasicConv2d-874            [-1, 384, 8, 8]               0\n          Conv2d-875          [-1, 192, 17, 17]         147,456\n          Conv2d-876          [-1, 192, 17, 17]         147,456\n     BatchNorm2d-877          [-1, 192, 17, 17]             384\n     BatchNorm2d-878          [-1, 192, 17, 17]             384\n     BasicConv2d-879          [-1, 192, 17, 17]               0\n     BasicConv2d-880          [-1, 192, 17, 17]               0\n          Conv2d-881          [-1, 192, 17, 17]         258,048\n          Conv2d-882          [-1, 192, 17, 17]         258,048\n     BatchNorm2d-883          [-1, 192, 17, 17]             384\n     BatchNorm2d-884          [-1, 192, 17, 17]             384\n     BasicConv2d-885          [-1, 192, 17, 17]               0\n     BasicConv2d-886          [-1, 192, 17, 17]               0\n          Conv2d-887          [-1, 192, 17, 17]         258,048\n          Conv2d-888          [-1, 192, 17, 17]         258,048\n     BatchNorm2d-889          [-1, 192, 17, 17]             384\n     BatchNorm2d-890          [-1, 192, 17, 17]             384\n     BasicConv2d-891          [-1, 192, 17, 17]               0\n     BasicConv2d-892          [-1, 192, 17, 17]               0\n          Conv2d-893          [-1, 192, 17, 17]         147,456\n          Conv2d-894          [-1, 192, 17, 17]         147,456\n     BatchNorm2d-895          [-1, 192, 17, 17]             384\n     BatchNorm2d-896          [-1, 192, 17, 17]             384\n     BasicConv2d-897          [-1, 192, 17, 17]               0\n     BasicConv2d-898          [-1, 192, 17, 17]               0\n          Conv2d-899          [-1, 192, 17, 17]         258,048\n          Conv2d-900          [-1, 192, 17, 17]         258,048\n     BatchNorm2d-901          [-1, 192, 17, 17]             384\n     BatchNorm2d-902          [-1, 192, 17, 17]             384\n     BasicConv2d-903          [-1, 192, 17, 17]               0\n     BasicConv2d-904          [-1, 192, 17, 17]               0\n          Conv2d-905          [-1, 192, 17, 17]         258,048\n          Conv2d-906          [-1, 192, 17, 17]         258,048\n     BatchNorm2d-907          [-1, 192, 17, 17]             384\n     BatchNorm2d-908          [-1, 192, 17, 17]             384\n     BasicConv2d-909          [-1, 192, 17, 17]               0\n     BasicConv2d-910          [-1, 192, 17, 17]               0\n          Conv2d-911          [-1, 192, 17, 17]         258,048\n          Conv2d-912          [-1, 192, 17, 17]         258,048\n     BatchNorm2d-913          [-1, 192, 17, 17]             384\n     BatchNorm2d-914          [-1, 192, 17, 17]             384\n     BasicConv2d-915          [-1, 192, 17, 17]               0\n     BasicConv2d-916          [-1, 192, 17, 17]               0\n          Conv2d-917          [-1, 192, 17, 17]         258,048\n          Conv2d-918          [-1, 192, 17, 17]         258,048\n     BatchNorm2d-919          [-1, 192, 17, 17]             384\n     BatchNorm2d-920          [-1, 192, 17, 17]             384\n     BasicConv2d-921          [-1, 192, 17, 17]               0\n     BasicConv2d-922          [-1, 192, 17, 17]               0\n          Conv2d-923          [-1, 192, 17, 17]         147,456\n          Conv2d-924          [-1, 192, 17, 17]         147,456\n     BatchNorm2d-925          [-1, 192, 17, 17]             384\n     BatchNorm2d-926          [-1, 192, 17, 17]             384\n     BasicConv2d-927          [-1, 192, 17, 17]               0\n     BasicConv2d-928          [-1, 192, 17, 17]               0\n      InceptionC-929          [-1, 768, 17, 17]               0\n      InceptionC-930          [-1, 768, 17, 17]               0\n          Conv2d-931          [-1, 192, 17, 17]         147,456\n          Conv2d-932          [-1, 192, 17, 17]         147,456\n     BatchNorm2d-933          [-1, 192, 17, 17]             384\n     BatchNorm2d-934          [-1, 192, 17, 17]             384\n     BasicConv2d-935          [-1, 192, 17, 17]               0\n     BasicConv2d-936          [-1, 192, 17, 17]               0\n          Conv2d-937            [-1, 320, 8, 8]         552,960\n          Conv2d-938            [-1, 320, 8, 8]         552,960\n     BatchNorm2d-939            [-1, 320, 8, 8]             640\n     BatchNorm2d-940            [-1, 320, 8, 8]             640\n     BasicConv2d-941            [-1, 320, 8, 8]               0\n     BasicConv2d-942            [-1, 320, 8, 8]               0\n          Conv2d-943          [-1, 192, 17, 17]         147,456\n          Conv2d-944          [-1, 192, 17, 17]         147,456\n     BatchNorm2d-945          [-1, 192, 17, 17]             384\n     BatchNorm2d-946          [-1, 192, 17, 17]             384\n     BasicConv2d-947          [-1, 192, 17, 17]               0\n     BasicConv2d-948          [-1, 192, 17, 17]               0\n          Conv2d-949          [-1, 192, 17, 17]         258,048\n          Conv2d-950          [-1, 192, 17, 17]         258,048\n     BatchNorm2d-951          [-1, 192, 17, 17]             384\n     BatchNorm2d-952          [-1, 192, 17, 17]             384\n     BasicConv2d-953          [-1, 192, 17, 17]               0\n     BasicConv2d-954          [-1, 192, 17, 17]               0\n          Conv2d-955          [-1, 192, 17, 17]         258,048\n          Conv2d-956          [-1, 192, 17, 17]         258,048\n     BatchNorm2d-957          [-1, 192, 17, 17]             384\n     BatchNorm2d-958          [-1, 192, 17, 17]             384\n     BasicConv2d-959          [-1, 192, 17, 17]               0\n     BasicConv2d-960          [-1, 192, 17, 17]               0\n          Conv2d-961            [-1, 192, 8, 8]         331,776\n          Conv2d-962            [-1, 192, 8, 8]         331,776\n     BatchNorm2d-963            [-1, 192, 8, 8]             384\n     BatchNorm2d-964            [-1, 192, 8, 8]             384\n     BasicConv2d-965            [-1, 192, 8, 8]               0\n     BasicConv2d-966            [-1, 192, 8, 8]               0\n      InceptionD-967           [-1, 1280, 8, 8]               0\n      InceptionD-968           [-1, 1280, 8, 8]               0\n          Conv2d-969            [-1, 320, 8, 8]         409,600\n          Conv2d-970            [-1, 320, 8, 8]         409,600\n     BatchNorm2d-971            [-1, 320, 8, 8]             640\n     BatchNorm2d-972            [-1, 320, 8, 8]             640\n     BasicConv2d-973            [-1, 320, 8, 8]               0\n     BasicConv2d-974            [-1, 320, 8, 8]               0\n          Conv2d-975            [-1, 384, 8, 8]         491,520\n          Conv2d-976            [-1, 384, 8, 8]         491,520\n     BatchNorm2d-977            [-1, 384, 8, 8]             768\n     BatchNorm2d-978            [-1, 384, 8, 8]             768\n     BasicConv2d-979            [-1, 384, 8, 8]               0\n     BasicConv2d-980            [-1, 384, 8, 8]               0\n          Conv2d-981            [-1, 384, 8, 8]         442,368\n          Conv2d-982            [-1, 384, 8, 8]         442,368\n     BatchNorm2d-983            [-1, 384, 8, 8]             768\n     BatchNorm2d-984            [-1, 384, 8, 8]             768\n     BasicConv2d-985            [-1, 384, 8, 8]               0\n     BasicConv2d-986            [-1, 384, 8, 8]               0\n          Conv2d-987            [-1, 384, 8, 8]         442,368\n          Conv2d-988            [-1, 384, 8, 8]         442,368\n          Conv2d-989            [-1, 384, 8, 8]         442,368\n          Conv2d-990            [-1, 384, 8, 8]         442,368\n     BatchNorm2d-991            [-1, 384, 8, 8]             768\n     BatchNorm2d-992            [-1, 384, 8, 8]             768\n     BatchNorm2d-993            [-1, 384, 8, 8]             768\n     BatchNorm2d-994            [-1, 384, 8, 8]             768\n     BasicConv2d-995            [-1, 384, 8, 8]               0\n     BasicConv2d-996            [-1, 384, 8, 8]               0\n     BasicConv2d-997            [-1, 384, 8, 8]               0\n     BasicConv2d-998            [-1, 384, 8, 8]               0\n          Conv2d-999            [-1, 384, 8, 8]         442,368\n         Conv2d-1000            [-1, 448, 8, 8]         573,440\n         Conv2d-1001            [-1, 448, 8, 8]         573,440\n         Conv2d-1002            [-1, 384, 8, 8]         442,368\n    BatchNorm2d-1003            [-1, 448, 8, 8]             896\n    BatchNorm2d-1004            [-1, 384, 8, 8]             768\n    BatchNorm2d-1005            [-1, 448, 8, 8]             896\n    BatchNorm2d-1006            [-1, 384, 8, 8]             768\n    BasicConv2d-1007            [-1, 448, 8, 8]               0\n    BasicConv2d-1008            [-1, 448, 8, 8]               0\n    BasicConv2d-1009            [-1, 384, 8, 8]               0\n    BasicConv2d-1010            [-1, 384, 8, 8]               0\n         Conv2d-1011            [-1, 448, 8, 8]         573,440\n         Conv2d-1012            [-1, 448, 8, 8]         573,440\n    BatchNorm2d-1013            [-1, 448, 8, 8]             896\n    BatchNorm2d-1014            [-1, 448, 8, 8]             896\n         Conv2d-1015            [-1, 384, 8, 8]       1,548,288\n         Conv2d-1016            [-1, 384, 8, 8]       1,548,288\n    BasicConv2d-1017            [-1, 448, 8, 8]               0\n    BasicConv2d-1018            [-1, 448, 8, 8]               0\n    BatchNorm2d-1019            [-1, 384, 8, 8]             768\n    BatchNorm2d-1020            [-1, 384, 8, 8]             768\n    BasicConv2d-1021            [-1, 384, 8, 8]               0\n    BasicConv2d-1022            [-1, 384, 8, 8]               0\n         Conv2d-1023            [-1, 384, 8, 8]         442,368\n         Conv2d-1024            [-1, 384, 8, 8]         442,368\n    BatchNorm2d-1025            [-1, 384, 8, 8]             768\n    BatchNorm2d-1026            [-1, 384, 8, 8]             768\n    BasicConv2d-1027            [-1, 384, 8, 8]               0\n    BasicConv2d-1028            [-1, 384, 8, 8]               0\n         Conv2d-1029            [-1, 384, 8, 8]         442,368\n         Conv2d-1030            [-1, 384, 8, 8]         442,368\n    BatchNorm2d-1031            [-1, 384, 8, 8]             768\n    BatchNorm2d-1032            [-1, 384, 8, 8]             768\n         Conv2d-1033            [-1, 384, 8, 8]       1,548,288\n    BasicConv2d-1034            [-1, 384, 8, 8]               0\n    BasicConv2d-1035            [-1, 384, 8, 8]               0\n         Conv2d-1036            [-1, 384, 8, 8]       1,548,288\n    BatchNorm2d-1037            [-1, 384, 8, 8]             768\n    BatchNorm2d-1038            [-1, 384, 8, 8]             768\n    BasicConv2d-1039            [-1, 384, 8, 8]               0\n    BasicConv2d-1040            [-1, 384, 8, 8]               0\n         Conv2d-1041            [-1, 384, 8, 8]         442,368\n         Conv2d-1042            [-1, 384, 8, 8]         442,368\n    BatchNorm2d-1043            [-1, 384, 8, 8]             768\n    BatchNorm2d-1044            [-1, 384, 8, 8]             768\n    BasicConv2d-1045            [-1, 384, 8, 8]               0\n    BasicConv2d-1046            [-1, 384, 8, 8]               0\n         Conv2d-1047            [-1, 192, 8, 8]         245,760\n         Conv2d-1048            [-1, 384, 8, 8]         442,368\n         Conv2d-1049            [-1, 192, 8, 8]         245,760\n         Conv2d-1050            [-1, 384, 8, 8]         442,368\n    BatchNorm2d-1051            [-1, 192, 8, 8]             384\n    BatchNorm2d-1052            [-1, 384, 8, 8]             768\n    BatchNorm2d-1053            [-1, 384, 8, 8]             768\n    BatchNorm2d-1054            [-1, 192, 8, 8]             384\n    BasicConv2d-1055            [-1, 384, 8, 8]               0\n    BasicConv2d-1056            [-1, 384, 8, 8]               0\n    BasicConv2d-1057            [-1, 192, 8, 8]               0\n    BasicConv2d-1058            [-1, 192, 8, 8]               0\n     InceptionE-1059           [-1, 2048, 8, 8]               0\n     InceptionE-1060           [-1, 2048, 8, 8]               0\n         Conv2d-1061            [-1, 192, 8, 8]         245,760\n         Conv2d-1062            [-1, 192, 8, 8]         245,760\n         Conv2d-1063            [-1, 320, 8, 8]         655,360\n    BatchNorm2d-1064            [-1, 192, 8, 8]             384\n         Conv2d-1065            [-1, 320, 8, 8]         655,360\n    BatchNorm2d-1066            [-1, 192, 8, 8]             384\n    BatchNorm2d-1067            [-1, 320, 8, 8]             640\n    BasicConv2d-1068            [-1, 192, 8, 8]               0\n    BasicConv2d-1069            [-1, 192, 8, 8]               0\n     InceptionE-1070           [-1, 2048, 8, 8]               0\n     InceptionE-1071           [-1, 2048, 8, 8]               0\n    BatchNorm2d-1072            [-1, 320, 8, 8]             640\n    BasicConv2d-1073            [-1, 320, 8, 8]               0\n    BasicConv2d-1074            [-1, 320, 8, 8]               0\n         Conv2d-1075            [-1, 320, 8, 8]         655,360\n         Conv2d-1076            [-1, 320, 8, 8]         655,360\n    BatchNorm2d-1077            [-1, 320, 8, 8]             640\n    BatchNorm2d-1078            [-1, 320, 8, 8]             640\n         Conv2d-1079            [-1, 384, 8, 8]         786,432\n         Conv2d-1080            [-1, 384, 8, 8]         786,432\n    BasicConv2d-1081            [-1, 320, 8, 8]               0\n    BasicConv2d-1082            [-1, 320, 8, 8]               0\n    BatchNorm2d-1083            [-1, 384, 8, 8]             768\n    BatchNorm2d-1084            [-1, 384, 8, 8]             768\n    BasicConv2d-1085            [-1, 384, 8, 8]               0\n    BasicConv2d-1086            [-1, 384, 8, 8]               0\n         Conv2d-1087            [-1, 384, 8, 8]         442,368\n         Conv2d-1088            [-1, 384, 8, 8]         442,368\n    BatchNorm2d-1089            [-1, 384, 8, 8]             768\n    BatchNorm2d-1090            [-1, 384, 8, 8]             768\n    BasicConv2d-1091            [-1, 384, 8, 8]               0\n    BasicConv2d-1092            [-1, 384, 8, 8]               0\n         Conv2d-1093            [-1, 384, 8, 8]         786,432\n         Conv2d-1094            [-1, 384, 8, 8]         442,368\n         Conv2d-1095            [-1, 384, 8, 8]         786,432\n         Conv2d-1096            [-1, 384, 8, 8]         442,368\n    BatchNorm2d-1097            [-1, 384, 8, 8]             768\n    BatchNorm2d-1098            [-1, 384, 8, 8]             768\n    BatchNorm2d-1099            [-1, 384, 8, 8]             768\n    BatchNorm2d-1100            [-1, 384, 8, 8]             768\n    BasicConv2d-1101            [-1, 384, 8, 8]               0\n    BasicConv2d-1102            [-1, 384, 8, 8]               0\n    BasicConv2d-1103            [-1, 384, 8, 8]               0\n    BasicConv2d-1104            [-1, 384, 8, 8]               0\n         Conv2d-1105            [-1, 384, 8, 8]         442,368\n         Conv2d-1106            [-1, 384, 8, 8]         442,368\n    BatchNorm2d-1107            [-1, 384, 8, 8]             768\n    BatchNorm2d-1108            [-1, 384, 8, 8]             768\n    BasicConv2d-1109            [-1, 384, 8, 8]               0\n    BasicConv2d-1110            [-1, 384, 8, 8]               0\n         Conv2d-1111            [-1, 384, 8, 8]         442,368\n         Conv2d-1112            [-1, 384, 8, 8]         442,368\n    BatchNorm2d-1113            [-1, 384, 8, 8]             768\n    BatchNorm2d-1114            [-1, 384, 8, 8]             768\n         Conv2d-1115            [-1, 448, 8, 8]         917,504\n    BasicConv2d-1116            [-1, 384, 8, 8]               0\n    BasicConv2d-1117            [-1, 384, 8, 8]               0\n         Conv2d-1118            [-1, 448, 8, 8]         917,504\n    BatchNorm2d-1119            [-1, 448, 8, 8]             896\n    BatchNorm2d-1120            [-1, 448, 8, 8]             896\n    BasicConv2d-1121            [-1, 448, 8, 8]               0\n    BasicConv2d-1122            [-1, 448, 8, 8]               0\n         Conv2d-1123            [-1, 384, 8, 8]       1,548,288\n         Conv2d-1124            [-1, 384, 8, 8]       1,548,288\n    BatchNorm2d-1125            [-1, 384, 8, 8]             768\n    BatchNorm2d-1126            [-1, 384, 8, 8]             768\n    BasicConv2d-1127            [-1, 384, 8, 8]               0\n    BasicConv2d-1128            [-1, 384, 8, 8]               0\n         Conv2d-1129            [-1, 448, 8, 8]         917,504\n         Conv2d-1130            [-1, 384, 8, 8]         442,368\n         Conv2d-1131            [-1, 448, 8, 8]         917,504\n         Conv2d-1132            [-1, 384, 8, 8]         442,368\n    BatchNorm2d-1133            [-1, 448, 8, 8]             896\n    BatchNorm2d-1134            [-1, 384, 8, 8]             768\n    BatchNorm2d-1135            [-1, 448, 8, 8]             896\n    BatchNorm2d-1136            [-1, 384, 8, 8]             768\n    BasicConv2d-1137            [-1, 448, 8, 8]               0\n    BasicConv2d-1138            [-1, 448, 8, 8]               0\n    BasicConv2d-1139            [-1, 384, 8, 8]               0\n    BasicConv2d-1140            [-1, 384, 8, 8]               0\n         Conv2d-1141            [-1, 384, 8, 8]       1,548,288\n         Conv2d-1142            [-1, 384, 8, 8]         442,368\n         Conv2d-1143            [-1, 384, 8, 8]       1,548,288\n         Conv2d-1144            [-1, 384, 8, 8]         442,368\n    BatchNorm2d-1145            [-1, 384, 8, 8]             768\n    BatchNorm2d-1146            [-1, 384, 8, 8]             768\n    BatchNorm2d-1147            [-1, 384, 8, 8]             768\n    BatchNorm2d-1148            [-1, 384, 8, 8]             768\n    BasicConv2d-1149            [-1, 384, 8, 8]               0\n    BasicConv2d-1150            [-1, 384, 8, 8]               0\n    BasicConv2d-1151            [-1, 384, 8, 8]               0\n    BasicConv2d-1152            [-1, 384, 8, 8]               0\n         Conv2d-1153            [-1, 384, 8, 8]         442,368\n         Conv2d-1154            [-1, 384, 8, 8]         442,368\n    BatchNorm2d-1155            [-1, 384, 8, 8]             768\n    BatchNorm2d-1156            [-1, 384, 8, 8]             768\n    BasicConv2d-1157            [-1, 384, 8, 8]               0\n    BasicConv2d-1158            [-1, 384, 8, 8]               0\n         Conv2d-1159            [-1, 384, 8, 8]         442,368\n         Conv2d-1160            [-1, 192, 8, 8]         393,216\n         Conv2d-1161            [-1, 384, 8, 8]         442,368\n         Conv2d-1162            [-1, 192, 8, 8]         393,216\n    BatchNorm2d-1163            [-1, 192, 8, 8]             384\n    BatchNorm2d-1164            [-1, 384, 8, 8]             768\n    BatchNorm2d-1165            [-1, 192, 8, 8]             384\n    BatchNorm2d-1166            [-1, 384, 8, 8]             768\n    BasicConv2d-1167            [-1, 192, 8, 8]               0\n    BasicConv2d-1168            [-1, 192, 8, 8]               0\n    BasicConv2d-1169            [-1, 384, 8, 8]               0\n    BasicConv2d-1170            [-1, 384, 8, 8]               0\n     InceptionE-1171           [-1, 2048, 8, 8]               0\n     InceptionE-1172           [-1, 2048, 8, 8]               0\n         Conv2d-1173            [-1, 192, 8, 8]         393,216\n         Conv2d-1174            [-1, 192, 8, 8]         393,216\n         Conv2d-1175              [-1, 1, 8, 8]              49\n    BatchNorm2d-1176            [-1, 192, 8, 8]             384\nSpatialAttention-1177           [-1, 2048, 8, 8]               0\nAdaptiveAvgPool2d-1178           [-1, 2048, 1, 1]               0\n    BatchNorm2d-1179            [-1, 192, 8, 8]             384\n        Dropout-1180                 [-1, 2048]               0\n    BasicConv2d-1181            [-1, 192, 8, 8]               0\n    BasicConv2d-1182            [-1, 192, 8, 8]               0\n     InceptionE-1183           [-1, 2048, 8, 8]               0\n     InceptionE-1184           [-1, 2048, 8, 8]               0\n         Conv2d-1185              [-1, 1, 8, 8]              49\nSpatialAttention-1186           [-1, 2048, 8, 8]               0\nAdaptiveAvgPool2d-1187           [-1, 2048, 1, 1]               0\n        Dropout-1188                 [-1, 2048]               0\n         Linear-1189                   [-1, 30]          61,470\n         Linear-1190                   [-1, 30]          61,470\nInceptionV3WithAttention-1191                   [-1, 30]               0\nInceptionV3WithAttention-1192                   [-1, 30]               0\n================================================================\nTotal params: 87,265,310\nTrainable params: 87,265,310\nNon-trainable params: 0\n----------------------------------------------------------------\nInput size (MB): 1.02\nForward/backward pass size (MB): 916.12\nParams size (MB): 332.89\nEstimated Total Size (MB): 1250.03\n-----------------------------------------------------------
…
